data.pth (torch, 5463 bytes, 6 tensors)

l1.weight f4 [8, 63]
0.3606144 -0.00498071 0.6996747 -0.40948913 0.18355523 0.77108526 -0.480671 -0.056276966
-0.31801185 0.5923726 -0.6161543 -0.15971069 0.6431224 0.3796559 -0.20866801 0.30714947
-0.2778062 -0.37229234 -0.12118826 0.3503434 -0.60411876 -0.39444828 0.5233552 0.1973436
0.58452046 0.5173243 0.46087053 0.19721799 -0.1997576 0.5268948 0.3815365 -0.28148475
-0.018873062 -0.15973866 0.1421066 -0.3697959 -0.19358492 0.17099075 0.7753411 -0.527082
0.9221661 -0.15525271 -0.21538508 -0.74633 -0.14352041 -0.16992617 -0.40192208 -0.36867285
-0.20866783 0.8465237 -0.5002855 -0.16305138 -0.5917008 0.3476332 0.19397604 0.14749326
0.6014519 0.5364199 -0.5926461 -0.26825124 -0.34823847 0.35900638 0.8131174 0.6584367
0.89458644 -0.3037616 -0.52050203 -0.23022787 -0.15563829 0.41273454 -0.15890065 -0.24585146
-0.33665702 -0.3384937 -0.3313056 -0.3969555 -0.21779996 -0.23944981 0.13262478 -0.12007407
0.4534977 -0.06685487 -0.35810605 0.3169069 0.6147514 -0.5099145 0.6805367 -0.36368382
-0.5795458 -0.60570073 -0.3720779 -0.13363174 0.09105666 -0.28054643 0.687856 0.8338431
0.35332596 0.68222284 0.08390353 0.04468392 0.47673208 -0.5093079 -0.46950018 0.5829425
-0.15516724 0.57207596 -0.36360762 -0.23566192 -0.14335452 0.008916263 0.7679043 -0.08370728
0.13066587 0.46048564 -0.41321075 0.70651287 1.2220194 0.7637057 0.13701358 -0.17341253
-0.2298268 0.6332919 -0.12293314 0.61423653 0.06543929 0.2518964 0.55194414 0.7175913
-0.3015892 -0.16583155 0.02782918 -0.22629726 -0.42818186 -0.25577983 -0.28580835 -0.26426193
-0.2757378 -0.26972076 -0.274657 0.25256872 0.68087244 -0.2337137 0.61830825 0.6018635
0.53432906 0.15387563 -0.3242797 0.09252925 0.031079775 0.59752095 -0.13667975 0.19957505
-0.059065115 0.68458503 0.1454814 -0.050397266 0.13690048 -0.04171111 0.5962897 -0.1350324
0.5957023 -0.10298469 0.4810572 0.40836465 -0.6297051 -0.34663144 0.24210085 0.53878546
-0.13333903 -0.2441849 -0.1960948 -0.34391516 -0.18298292 0.016950961 0.43370613 -0.5199596
0.5768984 0.075637616 0.7495379 1.116321 0.59704185 0.12511742 -0.07968566 -0.30205947
0.09153659 0.5924521 -0.038593195 -0.17764677 -0.085099384 0.5011279 0.17530073 -0.2632565
-0.13766699 0.3567788 -0.26998442 -0.14407922 -0.25066492 -0.053056322 -0.18753688 -0.08253044
-0.18466052 -0.17200196 0.32201514 0.40882203 -0.17045975 0.28362527 0.1538531 0.46411097
0.4338465 -0.13227232 -0.3209957 0.45909575 0.5243368 0.47870958 0.46730644 0.49433222
0.5875994 0.22625461 -0.1466272 0.4275603 -0.31700113 0.02641085 -0.2361937 -0.0077896914
0.08078807 0.39907765 0.34094298 -0.33908415 0.06487706 -0.23177062 0.45361042 -0.06404238
0.13883448 -0.05936188 -0.03562594 0.08898838 -0.47658494 0.37597078 -0.68152404 0.27527073
0.39482367 0.10649132 1.1189618 0.32888606 0.27872276 -0.24585223 -0.019809762 -0.41011456
0.2340708 -0.24839574 -0.062206212 0.123722434 0.38903219 -0.16677184 0.3779636 0.84554064
00000000: 73a2 b83e 3935 a3bb e21d 333f 8fa8 d1be
00000010: e7f5 3b3e d865 453f 821a f6be ad82 66bd
00000020: 73d2 a2be bba5 173f 4abc 1dbf 338b 23be
00000030: aba3 243f 4262 c23e 11ad 55be b242 9d3e
00000040: 9d3c 8ebe 1a9d bebe 8d31 f8bd 3660 b33e
00000050: 87a7 1abf 20f5 c9be 9bfa 053f 7114 4a3e
00000060: 22a3 153f 5e6f 043f 39f7 eb3e 83f3 493e
00000070: 428d 4cbe 94e2 063f c158 c33e c51e 90be
00000080: ae9b 9abc 8892 23be 6484 113e e355 bdbe
00000090: 203b 46be 3318 2f3e c17c 463f d9ee 06bf
000000a0: 1413 6c3f 91fa 1ebe e88d 5cbe 7c0f 3fbf
000000b0: 04f7 12be 2001 2ebe bbc8 cdbe b0c2 bcbe
000000c0: 05ad 55be c7b5 583f b612 00bf f1f6 26be
000000d0: b479 17bf fbfc b13e a8a1 463e 7908 173e
000000e0: c0f8 193f d152 093f a8b7 17bf 3a58 89be
000000f0: 504c b2be afcf b73e 7628 503f 4f8f 283f
00000100: 9e03 653f a486 9bbe 9f3f 05bf dbc0 6bbe
00000110: a55f 1fbe f151 d33e dab6 22be 7cc0 7bbe
00000120: 4f5e acbe 0c4f adbe e3a0 a9be c03d cbbe
00000130: f406 5fbe 5532 75be cace 073e 65e9 f5bd
00000140: da30 e83e 35eb 88bd ad59 b7be 9f41 a23e
00000150: 5960 1d3f c289 02bf a737 2e3f c434 babe
00000160: 1d5d 14bf 340f 1bbf ff80 bebe c2d6 08be
00000170: ea7b ba3d c8a3 8fbe 5517 303f be76 553f
00000180: 24e7 b43e 28a6 2e3f 9dd5 ab3d 7c06 373d
00000190: 3a16 f43e 0162 02bf 5462 f0be b83b 153f
000001a0: 29e4 1ebe 9273 123f c72a babe 5c51 71be
000001b0: 87cb 12be 8415 123c 6095 443f b96e abbd
000001c0: 46cd 053e c6c4 eb3e 5c90 d3be 07de 343f
000001d0: 226b 9c3f 3782 433f 4a4d 0c3e 0e93 31be
000001e0: b757 6bbe 6b1f 223f 5fc4 fbbd 9b3e 1d3f
000001f0: 0905 863d 91f8 803e 364c 0d3f 10b4 373f
00000200: e669 9abe bfcf 29be 05fa e33c 78ba 67be
00000210: a73a dbbe 93f5 82be 7955 92be 574d 87be
00000220: 812d 8dbe d718 8abe d89f 8cbe b050 813e
00000230: a84d 2e3f a552 6fbe 7349 1e3f ba13 1a3f
00000240: cac9 083f 9391 1d3e fd07 a6be fa7f bd3d
00000250: 039b fe3c 22f7 183f c7f5 0bbe 675d 4c3e
00000260: 43ee 71bd f740 2f3f 13f9 143e 5d6d 4ebd
00000270: a42f 0c3e 45d9 2abd 71a6 183f ef45 0abe
00000280: f27f 183f a3e9 d2bd 214d f63e 2c15 d13e
00000290: 5a34 21bf ad79 b1be 49e9 773e d8ed 093f
000002a0: 078a 08be 9b0b 7abe 13cd 48be a615 b0be
000002b0: e05f 3bbe bedc 8a3c bb0e de3e 131c 05bf
000002c0: 9daf 133f e5e7 9a3d b7e1 3f3f 9be3 8e3f
000002d0: bcd7 183f c81e 003e 3c32 a3bd 8aa7 9abe
000002e0: 8977 bb3d f1aa 173f e613 1ebd 09e9 35be
000002f0: 9648 aebd eb49 003f 0982 333e 8ec9 86be
00000300: 93f8 0cbe b6ab b63e 663b 8abe 8189 13be
00000310: 2757 80be 9651 59bd ab09 40be b805 a9bd
00000320: a617 3dbe 4821 30be 2bdf a43e 1f51 d13e
00000330: 008d 2ebe 5537 913e ab8b 1d3e f49f ed3e
00000340: 2121 de3e 6572 07be 8c59 a4be 990e eb3e
00000350: f03a 063f 6c19 f53e ca42 ef3e 1d19 fd3e
00000360: ea6c 163f 4aaf 673e 7125 16be 2fe9 da3e
00000370: f94d a2be 915b d83c c3dc 71be ab40 ffbb
00000380: 3774 a53d e853 cc3e 1490 ae3e 709c adbe
00000390: 44de 843d 4755 6dbe a03f e83e a728 83bd
000003a0: a02a 0e3e 7125 73bd 81ec 11bd 8a3f b63d
000003b0: f102 f4be 3e7f c03e 5c78 2ebf 49f0 8c3e
000003c0: 5426 ca3e 1f18 da3d 243a 8f3f c163 a83e
000003d0: c0b4 8e3e b0c0 7bbe 1548 a2bc 89fa d1be
000003e0: 41b0 6f3e 745b 7ebe f1cb 7ebd 3062 fd3d
000003f0: 3a2f c73e 3dc6 2abe 7284 c13e 5a75 583f

l1.bias f4 [8]
0.64572316 0.60572267 0.83134747 0.9331495 0.7538483 0.78702956 0.4603174 0.906793
00000000: 1d4e 253f a410 1b3f 30d3 543f e3e2 6e3f
00000010: 34fc 403f c57a 493f b9ae eb3e 9623 683f

l2.weight f4 [8, 8]
-0.23840028 1.423697 0.6934635 0.17812574 -1.3666508 0.69109136 1.2784747 0.65543336
-0.34295613 -0.69648004 0.18474293 1.2352555 1.2779422 1.6621945 -0.6822716 1.3780473
-0.2864664 -0.23529123 -0.24870312 -0.0111450255 -0.09415361 0.1735569 -0.27153924 -0.20231178
0.07401206 1.1150309 1.2979963 1.1382421 0.0025928293 -0.868956 -0.88663435 1.3384646
0.46884707 -0.8233946 0.22552828 0.14165612 0.50408435 -0.7054041 -1.2030739 0.7480825
1.4624252 0.6083245 0.26838517 0.6101947 1.1410022 -1.161126 -0.2695275 -0.1753276
-0.23290476 0.1073425 -0.17923588 -0.36148778 0.09396236 -0.28920946 0.09595387 -0.018288279
-0.7165202 0.3934914 1.069445 0.964676 0.29329163 0.5624395 -0.26485196 -1.0508187
00000000: 341f 74be b43b b63f d386 313f 9866 363e
00000010: 6aee aebf 5deb 303f 0fa5 a33f 7bca 273f
00000020: f297 afbe 844c 32bf 402d 3d3e da1c 9e3f
00000030: 9c93 a33f cac2 d43f 5aa9 2ebf db63 b03f
00000040: b9ab 92be 2ff0 70be 08ac 7ebe a099 36bc
00000050: 9cd3 c0bd e6b8 313e 3107 8bbe d22a 4fbe
00000060: a393 973d 55b9 8e3f be24 a63f ebb1 913f
00000070: 75ec 293b e773 5ebf 78fa 62bf cf52 ab3f
00000080: b90c f03e fdc9 52bf e3f0 663e 4d0e 113e
00000090: ac0b 013f 5d95 34bf 53fe 99bf 5682 3f3f
000000a0: c030 bb3f 28bb 1b3f c869 893e b835 1c3f
000000b0: 5c0c 923f c79f 94bf 82ff 89be 1489 33be
000000c0: 967e 6ebe 62d6 db3d 9c89 37be ed14 b9be
000000d0: 566f c03d 4313 94be 7683 c43d 4dd1 95bc
000000e0: de6d 37bf b477 c93e 93e3 883f 02f5 763f
000000f0: 522a 963e 09fc 0f3f ad9a 87be 3a81 86bf

l2.bias f4 [8]
0.31132874 0.74290437 -0.12865359 0.16827212 -0.13523751 0.70815885 -0.07084899 -0.29437104
00000000: 7b66 9f3e fb2e 3e3f c4bd 03be 874f 2c3e
00000010: b47b 0abe e649 353f 4619 91bd cdb7 96be

l3.weight f4 [8, 8]
-0.7105529 0.32631108 0.08943674 -0.43673697 -0.9688472 -0.634855 -0.12700836 0.97763765
0.40536067 -1.4320225 0.25056604 0.42884538 -0.82378024 -0.21067213 -0.22398737 -0.20068027
0.3241978 0.55723935 0.27640364 -0.03784737 -0.8297853 -1.1834782 0.19432122 -1.6029903
-1.5773007 0.35879984 0.26199248 0.35188013 1.5537641 0.10662996 0.099724986 -1.1801097
1.0081991 -0.90121984 -0.30420694 -1.0992223 0.058582485 -0.77511144 -0.16876538 -1.0799325
-0.6130531 -0.80957806 0.008471757 -0.38651988 -1.284771 1.0324962 0.045998402 -0.73412585
-1.3631297 1.1290417 0.30706063 -0.92137754 -1.5045023 -0.22688317 -0.14303103 -0.9360418
-0.4085095 -0.049684342 -0.30171803 0.473017 -1.3584192 0.19476843 0.068430305 -0.0570517
00000000: cbe6 35bf 3f12 a73e 9c2a b73d fd9b dfbe
00000010: 5f06 78bf db85 22bf 7b0e 02be 7646 7a3f
00000020: 6f8b cf3e 834c b7bf 314a 803e 9f91 db3e
00000030: 43e3 52bf 6fba 57be f25c 65be 217f 4dbe
00000040: 41fd a53e 3da7 0e3f c784 8d3e d805 1bbd
00000050: cf6c 54bf 377c 97bf 24fc 463e c92e cdbf
00000060: fde4 c9bf 9db4 b73e e123 863e a229 b43e
00000070: bee1 c63f cf60 da3d 9d3c cc3d d60d 97bf
00000080: ab0c 813f 58b6 66bf 03c1 9bbe 51b3 8cbf
00000090: 30f4 6f3d b46d 46bf d5d0 2cbe 3a3b 8abf
000000a0: 0cf1 1cbf 8240 4fbf 20cd 0a3c efe5 c5be
000000b0: 6073 a4bf d628 843f d268 3c3d acef 3bbf
000000c0: 097b aebf 7084 903f 0d37 9d3e 66df 6bbf
000000d0: 8893 c0bf 1054 68be ba76 12be 6fa0 6fbf
000000e0: 2828 d1be cf81 4bbd c97a 9abe 492f f23e
000000f0: aee0 adbf 6071 473e 3025 8c3d 0baf 69bd

l3.bias f4 [8]
-0.18359654 -0.48184556 0.32372582 0.03944538 0.29557413 0.50286514 0.08840088 -0.5762816
00000000: bb00 3cbe 76b4 f6be 64bf a53e 7b91 213d
00000010: 7e55 973e c5bb 003f 850b b53d 3187 13bf
